Yapay-Zeka-ile-Deprem-Tahmin-Ve-Analiz-Programi-main/model.pth (torch, 44980 bytes, 5 tensors)

lstm.weight_ih_l0 f4 [200, 1]
000000 6e c8 ff be 84 51 07 be 73 7d 93 be 24 b8 d9 3c
       -0.49957603 -0.1321469 -0.28806648 0.026577063
000010 e4 82 fd be d2 36 09 3d 39 c7 e5 3d cf 98 96 be
       -0.49513924 0.033499546 0.11219639 -0.2941346
000020 58 1b ef 3c 75 a0 a7 be d1 16 80 bf 14 17 4d bd
       0.029187843 -0.32739606 -1.0006963 -0.050070837
000030 d0 a0 ed be be 35 30 bf 86 f4 de 3d 12 c9 3e bf
       -0.46411753 -0.68832004 0.10886483 -0.7452556
000040 f1 84 85 be 32 b9 bf 3c ff e6 b6 bd c2 31 0c bf
       -0.2607799 0.023403738 -0.08930778 -0.54763424
000050 3b 83 b2 bd 9f 91 b6 be 94 a3 5a bf 35 02 37 bf
       -0.087164365 -0.35657975 -0.8540585 -0.7148774
000060 86 88 1a 3c dc cd 99 3e 7a 07 af be 3b fb 5a be
       0.009431964 0.3003987 -0.34185392 -0.213849
000070 6d 99 b1 bd 96 1d 0e bb d6 8b 86 be a0 2a 1f be
       -0.08671842 -0.0021685115 -0.2627856 -0.15543604
000080 5b 41 06 bf d0 d9 5b bd c6 3d ea 3d 15 bf eb be
       -0.52443475 -0.05367452 0.114375636 -0.46044222
000090 b3 a2 e5 3c 2a d3 48 bf 6c 1d 90 3e c5 53 8d be
       0.028031683 -0.7844721 0.28147447 -0.27602974
0000a0 94 ed a9 be 00 4d 00 3d da 37 8c be f5 d4 9f 3d
       -0.3318907 0.031323433 -0.2738636 0.0780429
0000b0 cf 22 9d 3d 6c 43 4b 3d c2 5d 23 bf e2 48 7a 3e
       0.07672655 0.049624845 -0.6381494 0.24441865
0000c0 36 55 9c be 1c 8a b3 be b2 4b 9b 3d be c8 0a 3e
       -0.3053376 -0.35066307 0.07582797 0.1355314
0000d0 ca 99 7e 3e 08 8f 93 3e 40 0d 27 be 70 5a 13 bd
       0.24863353 0.28820062 -0.16313648 -0.03597492
0000e0 e9 09 08 3d 35 00 37 3e ad 90 05 3e b8 d7 7a 3e
       0.033212576 0.17871173 0.1304347 0.24496353
0000f0 be 95 98 3b ca 9e 08 3e 10 e6 6d be 73 75 09 3e
       0.0046565225 0.13341823 -0.23232293 0.1342371
000100 7c 05 ab 3d 9d fb c9 bd 59 20 c7 3d b2 67 40 3d
       0.083506554 -0.098624445 0.09722967 0.04697389
000110 a4 a8 c3 bc 2c f0 87 bd 23 06 2a 3e 04 fc 92 3d
       -0.023884125 -0.06637606 0.16603903 0.071769744
000120 bd 5d e4 3d 92 4f 02 3e f0 45 49 3d 59 a0 3b be
       0.11150692 0.12725666 0.049138963 -0.18322887
000130 1d a5 0c 3d 2f d3 b5 3d 17 d7 9d 3e fb 21 af bc
       0.03433715 0.08878171 0.30828163 -0.021378508
000140 77 f3 0c 3e a8 19 0d be b5 64 76 3e 26 49 52 3e
       0.1376475 -0.13779318 0.24061854 0.20535716
000150 45 1c f9 bb 12 53 31 be 63 9d 38 3e 24 a1 24 bc
       -0.007602247 -0.17316845 0.18028788 -0.010048185
000160 ab 60 38 3e 13 dd 9a be 7d 0b 84 3e 2d 8e 41 3e
       0.18005626 -0.3024679 0.25790015 0.18901892
000170 37 ff 61 3e 6c b3 1a 3e cf 73 a3 3d 6b 29 6e be
       0.22070013 0.15107507 0.07981073 -0.23257987
000180 c6 54 03 3e 27 28 83 be 63 32 59 be 82 15 10 bd
       0.12825307 -0.2561657 -0.21210627 -0.03517676
000190 61 34 4c bd da 89 13 3e 75 75 c4 be f0 df 8d 3e
       -0.04985464 0.14408055 -0.38370863 0.27709913
0001a0 5d d6 06 be 2b d2 47 be 32 37 6b 3b a8 c0 b8 be
       -0.1316771 -0.19513766 0.0035891053 -0.36084485
0001b0 02 3d 90 3d af 2b c0 bd 34 49 5f 3e 1b c9 d2 bd
       0.07042886 -0.09383332 0.21805269 -0.10292264
0001c0 e5 18 9a 3e d4 8b 2b 3e 21 f2 98 bd 0f f3 83 3e
       0.30097118 0.16752559 -0.074680574 0.25771376
0001d0 60 d1 62 3e 58 15 3f bd 75 66 d1 3d d7 10 00 be
       0.22150183 -0.046651214 0.1022462 -0.12506424
0001e0 bb df 2b 3e 60 86 8d be 84 43 6f be 72 6c 90 be
       0.16784565 -0.27641582 -0.23365599 -0.28207737
0001f0 2b 2e ac 3d 5a 9d df 3d f0 f9 5c be 8d e2 bc 3d
       0.08407243 0.10918684 -0.21579719 0.09222899
000200 de 78 8d 3e 65 7e 84 bd 42 33 ce 3e 0b 11 2a bc
       0.27631277 -0.0646942 0.40273482 -0.01038004
000210 29 2b 98 3e 16 e3 69 be 0a 6a 1f bd aa 64 bc 3d
       0.2972043 -0.22840533 -0.038919486 0.09198888
000220 1d 7e a1 be 6a f1 c9 be 89 2c 3e 3e dc 42 60 bd
       -0.3154153 -0.39441997 0.18571676 -0.054751262
000230 02 e2 ce be 2b 13 b3 3e 9f 73 99 3e bd 25 d8 bc
       -0.40406805 0.34975561 0.29971024 -0.026385183
000240 07 c2 0e bd 24 35 e6 bd 03 04 86 be ab 79 42 be
       -0.034853008 -0.112406045 -0.26174936 -0.18991725
000250 c7 2e e5 3d cb c9 87 bd 57 33 ad be c6 0d d3 bd
       0.11190563 -0.06630286 -0.33828232 -0.103053614
000260 98 8e 34 be 87 d4 03 be b1 61 ad be 55 35 3a be
       -0.1763252 -0.12874041 -0.33863595 -0.18184407
000270 da 4f da 3d 68 85 a6 be 2a 3e eb bc 46 7f 3e be
       0.10659762 -0.32523656 -0.028716166 -0.18603238
000280 ed 45 0a bf ae 96 82 3d b5 d3 05 bf a7 0f 84 be
       -0.5401295 0.06376396 -0.52276164 -0.25793192
000290 f4 ed 6f 3c 42 f0 10 bf 44 e7 20 bd e2 61 ad bd
       0.014644135 -0.56616604 -0.039283052 -0.08465935
0002a0 25 56 9b bd 66 41 a7 be 3f db 01 bc 2e 2a 86 be
       -0.0758479 -0.32667083 -0.0079258075 -0.26204056
0002b0 6e d8 1d bf 5d 7f 05 bf 80 67 d3 3c d4 1e 5c 3e
       -0.6165837 -0.52147466 0.025806189 0.21496135
0002c0 97 d7 df bd a8 ce ae bd e6 ec 96 bd 21 40 36 3c
       -0.109297924 -0.0853551 -0.073694035 0.011123688
0002d0 15 6d a9 be d5 f5 99 be ca 61 e4 be d7 bc 34 3e
       -0.33091035 -0.30070367 -0.44605857 0.17650162
0002e0 fb 2c c3 bd ff 48 95 be 0a 59 4c 3e 56 8b df be
       -0.09530064 -0.29157254 0.1995584 -0.43660992
0002f0 23 4d c9 3c bb 35 88 be 6f e0 aa be f8 9e 95 bd
       0.024572914 -0.26603493 -0.33374354 -0.073057115
000300 aa 6a 4d be de c7 5c 3c 20 91 3a 3e 91 0e a5 3c
       -0.2006022 0.013475386 0.18219423 0.020148547
000310 a6 ce ba be 28 1c 2f 3d 9a eb e9 be 9c aa a1 be
       -0.36485785 0.04275146 -0.45687562 -0.31575477

lstm.weight_hh_l0 f4 [200, 50]
000000 72 57 28 bd 2d 9e dd 3c 6b 15 9f be 4f fc 47 ba
       -0.04109902 0.027052963 -0.31071028 -0.00076288445
000010 4d 10 a4 3d 54 4c 37 be 4a 57 48 3e 62 6c 80 be
       0.080109216 -0.1790021 0.19564548 -0.2508269
000020 6a fa 7a 3e 6b d1 31 be 14 8e 43 3e 70 60 40 3e
       0.24509588 -0.17365043 0.19097167 0.18786788
000030 8e 44 1b 3e 0e 4b 94 3e d1 5a 66 be b8 4d 5d 3e
       0.1516287 0.28963512 -0.22495581 0.21611679
000040 0e bb b3 bd 3e 72 0d 3d 85 c0 a3 bc 60 6f 96 3c
       -0.08775912 0.034532778 -0.019989261 0.018363655
000050 cc 3e 29 be 16 7a ce 3b 82 c4 25 be 88 5f 68 be
       -0.16527861 0.006301175 -0.16188243 -0.22692692
000060 9f d6 23 3e 65 72 e7 3d a6 01 31 bd 16 46 cb 3d
       0.1599984 0.11301116 -0.043214463 0.09925477
000070 99 d9 f2 bc 35 28 fd bd 81 5f 49 3e ba 25 40 3c
       -0.029644774 -0.123611845 0.19665338 0.011727745
000080 5e 2b 24 3e 66 85 a2 3d 51 32 d3 bd 70 01 ae 3d
       0.16032168 0.079356 -0.103123315 0.08496368
000090 ac b9 a7 3d 67 1a 66 be 9a 5a dd 3c fc 5e e7 bb
       0.08189711 -0.22471009 0.027020741 -0.0070608836
0000a0 ec ad ba be 46 cb 1a 3e 00 44 27 3e d6 19 1b be
       -0.36460817 0.15116605 0.16334534 -0.15146574
0000b0 3a 1d 52 be 39 04 1c be 8e e1 b6 be e4 b3 f9 bd
       -0.20518962 -0.15235986 -0.3571896 -0.121925145
0000c0 c3 0a f2 3d c0 3e 50 be d7 ec ed 3c 45 8d 6e 3d
       0.11818459 -0.20336437 0.029043598 0.058240194
0000d0 ed 91 57 39 ea 16 2b bd 66 d2 2b be ec 71 18 be
       0.0002055836 -0.0417699 -0.1677948 -0.14887208
0000e0 53 48 44 3e f7 e8 38 3d 0e 06 38 3e 98 9b 6c bd
       0.19168214 0.045144048 0.1797106 -0.057765573
0000f0 78 58 1e 3e 0b 33 42 3d 5c 96 c0 3b fb c9 ea 3c
       0.15463436 0.04741196 0.0058772992 0.028660765
000100 60 7a f6 bb 9a b5 49 bc bb 3b bb 3d c6 cd 79 3d
       -0.0075219125 -0.012311364 0.09142252 0.060987256
000110 b6 72 3b be bb 61 3a 3d f4 e2 a2 bd 47 d6 ab bd
       -0.18305477 0.04550336 -0.07953444 -0.083904795
000120 f4 da 3a be de cf a3 bd 41 b1 38 bd 7e cf fb bc
       -0.18247586 -0.07998632 -0.045090917 -0.030738588
000130 6d db 42 3b c2 7d 00 be 16 c8 38 be 0c 6d df 3c
       0.0029732839 -0.12547973 -0.18045077 0.027273677
000140 27 e6 79 3a f4 c0 d9 bc c9 ed 9e 3d a0 63 95 3d
       0.00095328916 -0.026581265 0.07760198 0.072943926
000150 06 90 0a be 5a 30 1e 3e 73 83 9b 3d 34 36 33 be
       -0.13531503 0.15448132 0.07593431 -0.17501146
000160 a3 7e ad bd 56 48 31 3c c0 da be 3d df c1 c0 ba
       -0.0847142 0.010820469 0.09319067 -0.0014706216
000170 75 9d 69 3d dd da 7e bd da cb cc bd 5c d1 80 3d
       0.05703493 -0.062220443 -0.09999819 0.06289932
000180 70 81 ad bd 05 85 fc bd e6 fe e7 bd 5d ab 0d be
       -0.08471954 -0.12330059 -0.11327915 -0.13834901
000190 5d 60 67 bd 87 5f 9a 3e 0a 46 07 be 7f 23 89 3e
       -0.056488384 0.30151007 -0.13210312 0.26784894
0001a0 9b ac 0d 3c bf 70 4b be ab 89 42 be bf 90 92 3c
       0.008647109 -0.19867228 -0.18997829 0.017891286
0001b0 c2 d4 80 3c d8 66 1a be f5 cf c0 3d c2 b0 7b 3c
       0.01572645 -0.15078294 0.09414665 0.015361967
0001c0 b1 13 7a 3d 18 7d 9b 3e 18 69 89 bd d7 7d c6 3d
       0.061053935 0.30368876 -0.06709498 0.09691971
0001d0 bb 54 cd 3d df 05 b7 bd d2 d3 8d 3e 01 bf 5e be
       0.10025927 -0.08936667 0.2770067 -0.2175255
0001e0 9b 7e 92 3e 32 63 98 be a9 c2 8f be 97 7d 34 be
       0.28612217 -0.2976318 -0.280782 -0.17626034
0001f0 96 90 23 3d 35 81 79 bd d1 01 91 be 9b 27 bc 3d
       0.03993281 -0.060914237 -0.28321698 0.09187242
000200 bc 35 ab 3d 06 43 33 3d f5 de 8a 3d 95 8a 83 3d
       0.083598584 0.04376509 0.06780807 0.06422917
000210 96 a4 0d 3e 1a a8 c0 bb cc 7c 1e be ef 85 2c 3e
       0.13832316 -0.0058794143 -0.15477294 0.16847967
000220 ed 90 40 be 5f d0 bf bd fe 24 7e 3d 26 61 bf bd
       -0.18805285 -0.093659155 0.062046997 -0.093447015
000230 a3 93 01 be 8c 57 8f 3e f0 a1 d0 3d 0f fd 91 3d
       -0.12653975 0.2799648 0.10187137 0.07128345
000240 85 74 52 3e 05 3e 8c be 2b 89 d7 be 75 3c 86 bc
       0.20552261 -0.27391067 -0.42096838 -0.01638625
000250 6f 47 17 bd 6f 16 94 be 51 e0 32 3c 29 6f be 3d
       -0.03693336 -0.28923365 0.010917739 0.09298546
000260 44 d0 02 bc c7 4b 06 bd 6a cd c7 bd 9c 1b 93 bd
       -0.007984225 -0.03278711 -0.097559765 -0.071830004
000270 0d 9c 2c 3b 31 b2 4b be a6 09 e4 3d e7 e7 29 bd
       0.002633813 -0.19892193 0.11134653 -0.041480925
000280 82 92 3b 3e bb 67 59 3d b7 a0 fa 3d 3b 68 08 3c
       0.18317607 0.05307744 0.12237685 0.008325632
000290 45 a3 46 be 0b d7 8b bd d9 c0 89 bd e6 c4 43 3d
       -0.1939822 -0.068281256 -0.06726236 0.0477952
0002a0 8d cc 24 3d 2a dd 3f bc 56 06 67 3d 17 63 0e be
       0.040234137 -0.011710444 0.056402527 -0.13904987
0002b0 73 0c 95 bd 30 be 42 be 71 f2 0a 3b 03 a8 99 3d
       -0.07277765 -0.19017863 0.0021201635 0.07502749
0002c0 a4 65 15 bd 79 47 6e 3c 32 68 a9 3d aa 45 f0 bd
       -0.036473885 0.014543408 0.08271827 -0.11732037
0002d0 d3 c1 86 3d 46 14 1d be c2 74 1e 3e ad f7 08 3e
       0.06579938 -0.15339765 0.15474227 0.13375731
0002e0 63 24 4c be b8 7d c9 3d 02 98 8e bd 02 53 25 bc
       -0.19935755 0.09838432 -0.06962587 -0.010090591
0002f0 8f 64 4e 3e aa 4e de bc c7 e7 30 be fc ab ef 3d
       0.20155548 -0.02713712 -0.17275916 0.11702725
000300 15 79 a6 3d dc 08 2d be 44 84 1f be e7 92 5a be
       0.08128563 -0.16897911 -0.15577799 -0.21345101
000310 d6 71 32 be 79 13 49 3d e5 d9 2d bd ba 02 1a be
       -0.17426237 0.049090836 -0.04244413 -0.15040103
000320 0a 08 85 bd 52 bd 30 3e cf b8 99 be 94 3b 63 3e
       -0.06495674 0.1725972 -0.3002381 0.22190696
000330 5e 19 c4 bc c6 c5 a0 be fd 14 19 3e af 96 a1 be
       -0.023937877 -0.3140089 0.14949413 -0.31560275
000340 fd 9c 73 3e 81 4b 24 be cd 9e e8 3e d8 b2 9e bc
       0.23790355 -0.16044427 0.45433655 -0.019372389
000350 6d 4e 1e 3e f2 71 0e 3e df 47 a4 be 22 54 e3 3d
       0.15459605 0.13910654 -0.32086083 0.111000314
000360 3e 9f 51 3e 48 7e a7 3d d6 b4 ce ba 7e 16 3b be
       0.20470902 0.08178383 -0.0015770446 -0.18270299
000370 35 a0 17 3e 6c 29 52 be d7 c4 6e be f4 6b a2 be
       0.14807208 -0.20523614 -0.23317276 -0.31722987
000380 87 31 b4 3d 1a 5a 03 3e 57 95 bd be f2 77 10 3b
       0.08798509 0.1282734 -0.37028 0.002204415
000390 48 1b 82 3e 60 59 da bd 38 60 a5 3e 36 9a 6e be
       0.2541144 -0.10661578 0.32299972 -0.23301014
0003a0 00 78 f1 3e 5a d9 6b bd 62 b8 c2 bd 29 f0 3d 3e
       0.47161865 -0.05758033 -0.095078245 0.18548645
0003b0 dc e8 5e bd d9 5d e7 be 01 67 a3 3e 78 8c 9b be
       -0.05442129 -0.45188788 0.31914523 -0.30380607
0003c0 11 ca 8a be 81 5b aa 3e 84 0f 67 3e cb 76 10 3d
       -0.2710729 0.33272937 0.22564512 0.03526954
0003d0 42 3e 84 bd 89 d4 87 bd d5 35 9a be 40 1e 04 be
       -0.06457187 -0.06632335 -0.30119196 -0.12902164
0003e0 48 99 41 3e 88 e8 a6 be 1d 1d 0a 3e a9 0f 20 be
       0.18906128 -0.32599282 0.13487668 -0.15630974
0003f0 16 43 aa 3d be cf 4f be c1 68 52 3d fc 95 f3 bb
       0.08313577 -0.20294091 0.051369432 -0.007433651

lstm.bias_ih_l0 f4 [200]
000000 14 8a 41 bc d8 d4 35 be 2f 9f da 3c 5e 2b fa 3d
       -0.011812706 -0.17756975 0.026687233 0.12215303
000010 9f 1b 1c bd 31 42 b2 be b8 10 df bd 5a 8e c5 bd
       -0.03811228 -0.34816125 -0.10891861 -0.09646292
000020 81 42 fd bd 8e 57 8f 3d 82 6b 7e be 90 bf 11 3d
       -0.123662 0.069991216 -0.24845698 0.03558308
000030 a6 d8 8c bd b1 b3 a8 bd fa 0c 92 be 1b e0 2e be
       -0.0687726 -0.082373984 -0.28525525 -0.17077677
000040 1b f8 f8 3c 91 2a ee bd ff 26 42 be 74 36 82 be
       0.030391743 -0.11629213 -0.18960188 -0.2543217
000050 7c 6f ed bd 93 17 33 bc 60 9a 42 be 5e 36 39 be
       -0.115935296 -0.0109309135 -0.19004202 -0.18087146
000060 c4 1a e7 bd 55 29 67 be 26 68 21 bd 4a 08 2f bd
       -0.11284402 -0.2257436 -0.039405964 -0.042732514
000070 38 6e 2b be 8a 79 9a ba b5 b0 e7 bd 3d fc e6 bd
       -0.16741264 -0.0011785489 -0.11313001 -0.112785794
000080 24 b7 7f bd 1d b2 29 be cb 3b 31 be ed 41 8c be
       -0.062430516 -0.16571851 -0.17307965 -0.27394047
000090 a7 10 d3 3a e0 02 44 bc 86 c7 13 be 39 0c 6b be
       0.0016102985 -0.011963576 -0.14431581 -0.22953881
0000a0 51 b5 85 bd 14 5e b6 3d 4d 19 ab 3c 65 64 cd bd
       -0.06528724 0.08904663 0.020886088 -0.10028914
0000b0 de 46 02 be 19 66 4a be 3e 90 c9 bd 1f 58 50 be
       -0.12722346 -0.1976551 -0.09841965 -0.20346116
0000c0 9e 47 5b be a9 2d d7 bd 0b c8 e8 bd 93 56 d2 bd
       -0.21414039 -0.10506756 -0.1136628 -0.10270419
0000d0 4c 22 51 3e e1 47 2c 3d d0 cd 9d bd 83 76 76 3c
       0.2042324 0.042060737 -0.07705271 0.015042904
0000e0 ac b8 30 be 40 57 77 bd 01 ff 6c be c4 a3 b3 be
       -0.17257947 -0.060385942 -0.23144151 -0.3508588
0000f0 5d f5 88 be b8 97 4c 3d 3b a3 2d be ac 65 16 be
       -0.26749697 0.049949378 -0.16956799 -0.14687222
000100 21 ab 09 bd 3b 1f 58 be 6a 32 a9 3c 62 da 08 be
       -0.033610467 -0.21105663 0.020653922 -0.13364556
000110 1d 71 1e be 8a 04 ae bd ae 97 4e be 52 9a fc bd
       -0.15472837 -0.084969595 -0.20175049 -0.12334122
000120 2e d8 52 be 7d 38 77 3d 99 a0 53 be e1 05 a3 bd
       -0.20590279 0.060356606 -0.20666732 -0.07960106
000130 07 1a 0e bd 46 e2 e9 bd b3 c0 27 bd 2e b5 04 be
       -0.03469279 -0.11420111 -0.040955257 -0.1295974
000140 c8 b3 61 3e 33 60 f9 bd 1f 50 d4 bd 5d b3 63 bd
       0.22041237 -0.12176552 -0.103668444 -0.055590976
000150 27 dc f1 bd 23 44 dd bd 56 5a f5 3c 81 89 1e be
       -0.11809569 -0.10804012 0.029950302 -0.15482141
000160 19 9c 19 3c 26 6a 30 be 5e 11 07 3e 40 74 29 bd
       0.0093755955 -0.17227992 0.13190219 -0.04137063
000170 0c 38 9b bd 13 58 7c 3d 75 63 6a 3b b4 63 9f bd
       -0.075790495 0.06160743 0.0035764847 -0.07782689
000180 21 c1 29 be 30 50 76 be da d0 46 be 80 71 8e be
       -0.16577579 -0.24054027 -0.19415608 -0.2782097
000190 39 59 bd bc d4 15 11 3c b7 db be bc a8 62 29 bd
       -0.023113834 0.008855302 -0.023298128 -0.04135385
0001a0 b5 b3 0c be de 82 5a 3d 80 62 4c bd f5 e8 ff bc
       -0.13740428 0.05334746 -0.049898624 -0.031239012
0001b0 e6 06 cb 3d bd 1c 9f bd 35 72 b8 bd d2 71 71 3c
       0.09913425 -0.07769153 -0.09006158 0.0147366095
0001c0 ba 92 81 bd 7d 10 d1 bd 75 db 16 3d c6 1e 34 bd
       -0.06326814 -0.10208223 0.036830384 -0.04397466
0001d0 f9 99 99 bd 12 60 51 bc dc 49 29 3d 5c 2d 5b bd
       -0.07500071 -0.012779253 0.041330203 -0.053510055
0001e0 16 22 f9 3c 34 48 1d 3d cf 8b b0 3b 90 07 77 3d
       0.030411761 0.038398936 0.0053877602 0.060309947
0001f0 39 7f e6 bc cf 23 d0 bb 03 56 89 3d 05 81 23 bc
       -0.028136836 -0.006351925 0.067058586 -0.009979491
000200 88 3d 5b bb a9 41 33 3d 87 a9 88 bd 31 39 9a 3c
       -0.0033453424 0.04376379 -0.0667296 0.0188261
000210 71 71 e8 bc 3a 70 1e 3b 18 dd fe bb a1 40 92 3d
       -0.028374406 0.002417578 -0.0077778213 0.07141233
000220 3f c1 94 bd 5d c0 ae 3c 61 12 16 bd a8 d9 66 3d
       -0.07263421 0.02133196 -0.03663862 0.056359917
000230 2b 89 ed bc d9 6f 0d be c2 12 5b 3b 50 5d 37 3d
       -0.02899607 -0.13812198 0.0033427929 0.044766724
000240 c8 8c 6b 3d 11 86 0a bd 34 e5 da 3d 54 5d df 3d
       0.057507306 -0.033819262 0.10688248 0.10906473
000250 36 32 76 bd 06 5d b7 3a 9b f3 4b be 0b c0 01 be
       -0.06010648 0.0013989515 -0.19917147 -0.12670915
000260 fb 56 21 3d 93 48 07 bd 2f 61 99 bd 8d 64 95 be
       0.03938959 -0.033028197 -0.074892394 -0.29178277
000270 c9 33 a4 bd 30 29 e9 3d fa a7 68 be 3d 53 61 3d
       -0.0801769 0.11384809 -0.22720328 0.055011023
000280 84 a9 8c be f8 13 b4 3c da ac 4e 3d 73 6f 00 be
       -0.2747308 0.021982178 0.050457813 -0.12542515
000290 f8 6a 9c be bc 36 c7 bd 75 32 32 be 61 e8 cd bd
       -0.3055036 -0.09727237 -0.1740206 -0.100540884
0002a0 03 07 a8 bc 93 84 1c be f5 19 d3 3b 95 9e 43 be
       -0.020511156 -0.15284948 0.0064423033 -0.19103463
0002b0 ae 6d 07 be 99 d9 0b bd 31 7c d8 bd e2 11 82 be
       -0.13225433 -0.034143064 -0.10570563 -0.25404269
0002c0 15 8b 8d be 07 a9 07 3d dd f3 c6 3c 2d 33 31 3d
       -0.27645174 0.03312018 0.024286205 0.043261696
0002d0 02 9d 8e bd 74 a0 02 be 9c b9 17 be 15 56 e5 bd
       -0.069635406 -0.1275652 -0.14816898 -0.111980595
0002e0 83 41 43 bd 7e ad 71 bd ff e6 08 3d dd d8 1b 3c
       -0.0476699 -0.059003346 0.03342342 0.009512153
0002f0 b2 a3 2f be b7 64 81 be 7b 4b fa 3d d4 47 9d bd
       -0.17152289 -0.25272152 0.12221428 -0.07679716
000300 53 23 1b bd 92 0b b2 bd d0 11 26 be 95 9e 91 be
       -0.037875485 -0.08693613 -0.16217732 -0.284413
000310 a3 a1 1c 3d f7 3c 0d be 83 28 28 be 45 84 78 be
       0.038240086 -0.13792787 -0.16421704 -0.24269207

lstm.bias_hh_l0 f4 [200]
000000 0b d7 42 be 03 91 86 3c ed aa 08 3e 6e 59 f1 3d
       -0.19027345 0.016426569 0.13346453 0.117846355
000010 2a d6 13 be cb d5 12 be de 7b 1d be 8a 5d d8 bd
       -0.14437166 -0.14339368 -0.15379283 -0.10564716
000020 26 62 46 be 24 02 20 be 25 57 97 be f4 79 3f bd
       -0.19373378 -0.15625817 -0.29558674 -0.046747163
000030 d9 57 47 be c3 2b 8f bd ed c1 51 be 41 2a 74 be
       -0.19467105 -0.06990769 -0.20484133 -0.23844244
000040 53 b3 2e be 43 61 be 3c 29 73 c1 bd f4 a7 29 bd
       -0.17060594 0.023239737 -0.09445793 -0.04141994
000050 ec d1 3b bd 9e f8 77 be 1c c6 2d be 30 ff fe bd
       -0.045854494 -0.24215934 -0.16970104 -0.12451017
000060 1d 8f 09 be df 2a 77 be f1 e3 ef bd 07 03 d7 bb
       -0.134335 -0.24137448 -0.11713398 -0.00656164
000070 68 36 6d bd 6e 8d 9e bd 8b a9 a1 3c 13 b0 ab be
       -0.057913214 -0.07741819 0.019734165 -0.3353277
000080 a4 4c 01 be 31 c5 05 be 4c a4 6e be c4 f0 a1 be
       -0.12626892 -0.13063504 -0.23304862 -0.31629002
000090 df 9e 22 3d 92 e4 e5 bd ca 39 48 be 41 15 68 be
       0.039702293 -0.11225237 -0.19553295 -0.22664358
0000a0 dc d0 d1 3b d8 25 c5 3d 07 c2 46 bd 59 33 ed bd
       0.006403072 0.09626359 -0.048524883 -0.115820594
0000b0 0d 91 7c ba ad d6 a7 be ca 6a fd bd a8 18 92 be
       -0.00096346514 -0.32780972 -0.12373884 -0.28534436
0000c0 da 06 0a be e1 dc 39 be 19 90 b1 be c6 3b 08 be
       -0.13479176 -0.18150665 -0.3468025 -0.13304052
0000d0 2a 61 8d 3d 66 d2 13 3e 9e 42 a3 bd 9b d7 74 3c
       0.06903298 0.1443573 -0.079716906 0.0149439825
0000e0 bd 1b 4e be 6b 07 d1 3d 63 47 31 be 33 6c cd bd
       -0.20127769 0.10206493 -0.17312388 -0.10030403
0000f0 13 51 87 be be 57 07 be f0 b7 0e be f8 cc 76 be
       -0.26429042 -0.13217065 -0.13937354 -0.24101627
000100 6a 4b 3d be df d2 7e be 8e 4c c1 bd e5 98 b4 bd
       -0.184858 -0.24885128 -0.0943843 -0.08818225
000110 b0 0d f0 bd 14 94 8f bd db 6d 3d 3c 17 c2 1f be
       -0.11721361 -0.070106655 0.011561836 -0.15601383
000120 bb 73 47 3c 33 69 25 bd 30 eb 50 3c 0b 0c b8 bc
       0.012173588 -0.04038353 0.012751386 -0.02246668
000130 45 84 c8 bd 12 97 5e be 1e a8 ed bd 1c 48 2d be
       -0.097908534 -0.21737316 -0.116043314 -0.16922039
000140 aa ad 4f 3e 7d 0f e8 bd 3a 7c 21 be ef b4 16 be
       0.20281091 -0.11331079 -0.15770045 -0.14717458
000150 9a 61 0b 3d 95 fd 8f be ce 8b 27 be 99 3c a6 bd
       0.034028627 -0.28123155 -0.16361925 -0.08117027
000160 ab 1a 3b 3e cd 52 91 bd de 45 90 3e 20 60 32 bd
       0.18271892 -0.07095871 0.28178304 -0.043548703
000170 6d 4f 82 bd 84 67 1b be f6 5a 72 bd f4 b7 e5 bd
       -0.063628055 -0.15176207 -0.05916878 -0.11216727
000180 25 9f 42 be 84 9d 49 bd 4c 55 a9 bc eb ec 40 bd
       -0.19006021 -0.049222484 -0.020670556 -0.047100943
000190 b7 91 a8 3b b0 61 86 b9 ec 60 48 3d 5c f0 be 3b
       0.0051443237 -0.00025631255 0.048920557 0.005826993
0001a0 3a e4 8d 3d 44 0b 82 bc aa 0b 7e bc b5 ed a7 3d
       0.069282964 -0.015874512 -0.015505711 0.08199636
0001b0 fd 68 09 be 07 39 b9 3d 83 4a 65 3d 04 ae b8 bc
       -0.13418956 0.0904408 0.055979263 -0.022543915
0001c0 59 4e 97 3c 71 9d b6 3d 7f 57 05 bc 8b fc 23 ba
       0.018469976 0.08916748 -0.0081385365 -0.00062555884
0001d0 e4 fe 57 3d dd ca 1f bd 9c 85 45 bd 22 d6 56 3d
       0.052733317 -0.039011825 -0.048223123 0.052450307
0001e0 2d b7 01 3a 49 6f cd 3b 5c e3 a6 3c 7a 1b 95 bc
       0.0004948255 0.0062693697 0.020372085 -0.018201578
0001f0 cd 5c 39 bd c8 fb 53 bd a5 d9 ac bc 36 76 c5 3c
       -0.045254517 -0.05175379 -0.021099875 0.024104219
000200 c5 45 7a bc 7f f7 85 3d 46 13 29 bd 5d 6e 9e 3c
       -0.015275423 0.06541347 -0.041278146 0.019339735
000210 9a 74 5b bc af b5 2a bc c9 e0 0a 3d ab 04 cf bd
       -0.013394499 -0.010419293 0.033905778 -0.10108312
000220 2c bc 63 bd 91 44 89 3d 0c 5e 70 bd 88 42 5e bc
       -0.055599377 0.06702531 -0.05868344 -0.013565667
000230 04 a1 ef 3d 4e 95 ff 3d 92 4a fe bc 0e c8 3b 3d
       0.11700633 0.124796495 -0.031041417 0.045845084
000240 6e 38 19 3d fc c9 95 3d 4a 1d 8b bd 50 69 ff bc
       0.03740733 0.07313916 -0.06792696 -0.031178147
000250 a0 7d e5 3c 1f 0c 4c bb e0 d2 fe bd bb 05 2d be
       0.028014004 -0.0031135154 -0.12442565 -0.16896717
000260 e7 f8 34 3e 73 c4 46 bd 4f 40 08 be 44 97 a6 be
       0.17673074 -0.048527192 -0.13305782 -0.32537282
000270 b3 c9 33 be 88 b7 86 bd 21 55 b5 bd 45 d1 e6 bd
       -0.17557411 -0.065779746 -0.08854128 -0.11270384
000280 0e df 9b be fe f2 4b be 68 da 17 3c 76 7b 0f 3e
       -0.30443615 -0.19916913 0.009268381 0.1401194
000290 0e bd 7b bd 74 15 01 be 81 88 7a bd 3f eb 22 be
       -0.061459593 -0.1260584 -0.061165337 -0.15910052
0002a0 19 89 59 be 93 72 3c bd 46 f5 3b be 52 3e fc bd
       -0.21243705 -0.046007704 -0.18355283 -0.12316574
0002b0 b6 19 33 be c0 5f cb bc 08 29 1d bd e6 d4 df bd
       -0.17490277 -0.02482593 -0.03836921 -0.10929279
0002c0 0e 45 1d bd 55 51 3d be 19 8c 98 3d ed b2 14 3d
       -0.038395934 -0.18488057 0.074485965 0.03630345
0002d0 48 e1 03 3e ea 59 44 be b0 6a 32 bd 74 4e 1f be
       0.12878907 -0.19174924 -0.043558776 -0.15557271
0002e0 9d 25 01 be ef ce 51 be 07 f3 27 be 2f f3 2a bd
       -0.12612005 -0.20489095 -0.16401301 -0.041735824
0002f0 aa fa c3 bd 78 7d 9f bd ae cf 38 bd c6 76 df 3d
       -0.09569295 -0.07787603 -0.045119934 0.10911326
000300 9b 13 e4 3d 06 cf fb 3b d7 55 9a bc 9f fb 76 be
       0.11136552 0.007684591 -0.01883976 -0.24119423
000310 83 bc 02 3e 37 dc 81 be 5f 03 18 be 2f e3 7b be
       0.12767224 -0.25363323 -0.14845036 -0.24598382

fc.weight f4 [1, 50]
000000 d4 b7 93 bd 1a f9 85 3b 2a 22 24 be e5 86 67 3c
       -0.07212797 0.004088533 -0.16028658 0.014131282
000010 17 76 22 be 9d 22 e3 3c a1 2c ba bd 73 62 02 be
       -0.1586536 0.027726466 -0.090905435 -0.12732868
000020 cf f0 3f bd cb c1 3a bd 76 04 a2 3d ce d0 28 bd
       -0.046860512 -0.04559497 0.07911007 -0.041214757
000030 80 33 ef 3d 04 98 c6 3d 1f f8 ed 3c f1 d5 98 3d
       0.11679745 0.096969634 0.029048977 0.07462681
000040 bd 75 e2 3d 9a e1 95 bd 1f 64 f8 3c cb dd 65 bd
       0.11057613 -0.07318421 0.030321179 -0.05611972
000050 ea 68 fe 3d b9 46 af bc 8e bc 11 be 54 e7 bf bd
       0.124223545 -0.021396028 -0.14232084 -0.09370294
000060 84 f2 a6 bd 9d c8 b0 bd d2 97 bb bc 09 f3 82 3d
       -0.08151725 -0.08632014 -0.022899542 0.063940115
000070 54 61 cd 3d c8 a8 02 3e 1f 7b 90 3d e4 7f f9 3d
       0.100283295 0.12759697 0.070547335 0.12182596
000080 d7 9d 82 3d 69 b8 e5 bd 54 da 19 3d 96 01 34 3d
       0.06377762 -0.11216814 0.03756173 0.043946825
000090 5f 0b 1a be 26 1c ac bd a1 63 08 be 32 e7 bd ba
       -0.150434 -0.084038064 -0.13319255 -0.0014488457
0000a0 75 0d 08 be 61 f7 16 3e 9c 01 04 3e 44 63 e2 3d
       -0.13286383 0.14742805 0.12891239 0.1105409
0000b0 4c 42 a7 3d c3 27 6c 3d 20 29 c5 bd bb a3 79 3d
       0.08166942 0.057655107 -0.096269846 0.06094716
0000c0 ef 02 3e 3c 3d 38 4c bc
       0.011597379 -0.01246458
